models/mf-router/model.safetensors (safetensors, 819960 bytes, 3 tensors)

P.weight f4 [64, 128]
000000 51 c9 90 3f bc 9e 40 3f 2b b4 47 3f 64 4f 54 bf
       1.1311437 0.7524221 0.7800929 -0.8293364
000010 32 fc 4d 3e a1 aa 95 be 9b 0d c7 bd 56 95 62 bf
       0.20115736 -0.29231742 -0.09719392 -0.8850912
000020 30 bb 1c bf 78 76 5d 3f f8 a3 01 bf 97 56 2d bf
       -0.61223125 0.86508894 -0.5064082 -0.6771025
000030 68 90 8c be fd 6b 39 bf 5d 36 86 be bb 7d 06 3e
       -0.27453923 -0.724304 -0.2621335 0.131339
000040 71 9a e8 3e d4 25 ed 3d d5 01 13 bf 22 a3 83 bd
       0.4543033 0.11579481 -0.5742467 -0.064275995
000050 99 ae b9 be c8 d9 d9 3e f2 6f 44 3d f9 4c 7a 3f
       -0.3626602 0.42548966 0.047958322 0.977737
000060 96 f2 fb 3d 91 a6 1f 3f 94 f9 51 3e b7 88 03 3f
       0.12302129 0.62363535 0.20505363 0.51380485
000070 d4 68 59 be df 80 1e 3d 3c 4e c1 be a2 82 64 3e
       -0.21231395 0.03869712 -0.37755 0.22315457
000080 75 ed 0b bf 15 7d 58 bf 49 e8 01 3e 68 dd 4f 3f
       -0.54659206 -0.8456586 0.12686266 0.81197214
000090 11 03 a7 3e ef a7 f1 bd a2 fe 51 3d 7a ad 44 bf
       0.32619527 -0.11799609 0.051268227 -0.76827204
0000a0 25 fd 63 bf 93 12 27 3e 6b 28 6c be 1e 88 89 bd
       -0.8905814 0.16315679 -0.23062293 -0.067154154
0000b0 c3 07 85 bf 21 b6 89 3f 87 84 32 bf 76 7b 68 bd
       -1.0392994 1.0758706 -0.6973347 -0.056758367
0000c0 ea 5f cb be 84 7b 4c be 75 3f 27 3e bb 86 6c 3e
       -0.39721614 -0.19968992 0.163328 0.2309827
0000d0 6c 21 b9 bd 7d 9b 27 3f d1 ef 0a be b0 dc 08 bf
       -0.09039578 0.6547163 -0.13568045 -0.5346174
0000e0 ee ae 3c bf 2a 7e 01 be 1e d1 86 bd 76 a0 47 3f
       -0.7370442 -0.12645784 -0.06582855 0.7797922
0000f0 02 20 3f be be ab 6a 3f 65 bc 59 bf 94 0b 08 3f
       -0.18664554 0.9166831 -0.8505309 0.53142667
000100 2f 28 73 3e 76 45 49 3f d3 2d 1f 3e 0a b7 fd 3d
       0.23745798 0.78621614 0.15544824 0.123884276
000110 15 b4 fc 3e 30 d9 08 be 56 2e 2d bf 57 fa 01 3f
       0.49356142 -0.133641 -0.6764883 0.50772613
000120 b8 e0 fb bd d1 a5 97 3d fd 47 09 be 40 2e e2 3c
       -0.12298721 0.07404674 -0.13406368 0.027609944
000130 d0 ea f4 3d 38 15 43 bf 16 6e 7b bf 38 d6 96 be
       0.119588494 -0.7620425 -0.9821485 -0.2946031
000140 9b bf fc 3c 7d 5f 92 be ee be 2b bf 64 be 00 be
       0.030853083 -0.28588477 -0.6708821 -0.12572628
000150 31 fe 9a 3d 63 50 31 3e 31 21 c0 3d bb f3 66 3e
       0.075680144 0.17315821 0.09381331 0.22553913
000160 0c ef 5a bd d3 bb 41 be fb 9f 08 bf bf b3 6e 3e
       -0.05345063 -0.18919306 -0.5336911 0.23310755
000170 5d 87 72 bf 6f 8f 1d be 92 c7 93 3e 66 d3 b0 3e
       -0.947378 -0.15386747 0.28863198 0.34536284
000180 b7 14 47 bf a9 34 f1 3e f1 67 7f 3e 2e c7 fa bc
       -0.77765983 0.4711049 0.24941994 -0.030612554
000190 9a e6 30 3e fd e1 98 3e c3 74 2e 3f 3c 97 80 be
       0.17275468 0.29859915 0.68146914 -0.25115383
0001a0 2b 55 af bb 90 ea df 3e 6c 7e c2 3c 97 0c 1a be
       -0.005350729 0.43733644 0.023741923 -0.15043865
0001b0 64 44 f2 3c 15 7f 74 3f 44 31 c2 bc 0e 21 5d 3d
       0.029573627 0.9550641 -0.023705132 0.0539866
0001c0 da 75 01 bf e6 05 6c 3e fa 77 8d 3c 47 1d 97 3c
       -0.5057045 0.23049125 0.017269123 0.018446578
0001d0 d0 89 f4 3e c1 86 17 be 06 88 04 bf 32 d2 aa 3c
       0.47761393 -0.14797498 -0.51770055 0.020852182
0001e0 ce 81 f0 3d cc 7e 59 bd 03 2e 06 be df e7 5b 3e
       0.11743508 -0.05309944 -0.1310349 0.2147517
0001f0 f6 d5 a1 3e 19 de dd 3e 1f 4d 13 3e 66 2b 18 3d
       0.31608552 0.4333351 0.14384888 0.037150763
000200 50 d8 82 3f 47 27 c2 3e 25 e8 06 bf 96 03 90 3c
       1.0222263 0.3792059 -0.52697974 0.017579835
000210 ad 44 c3 be c4 ce 38 3f 55 78 d5 3d cb a4 fe 3e
       -0.38138333 0.721905 0.10423342 0.49735102
000220 bf 2b cc 3e 48 6a 3d be cc 55 b2 bf 40 5f 28 3e
       0.39877126 -0.18497574 -1.3932433 0.16442585
000230 bf 22 a3 bc 63 69 b2 3e b3 aa 99 bd d8 84 74 3e
       -0.01991403 0.3484603 -0.075032614 0.23878801
000240 1d 35 ad be 82 f1 2e 3f bb eb 26 3f d4 3e c6 3e
       -0.33829585 0.6833726 0.65203446 0.3871981
000250 13 6b 1a be bc b5 2a be 63 59 71 be 57 4e 90 be
       -0.15079908 -0.16670889 -0.23569255 -0.2818477
000260 8c a9 42 be 69 12 8c 3e 1f bd ad 3d 61 8a 33 3f
       -0.1900999 0.27357796 0.084833376 0.70133024
000270 44 47 23 bf f9 6f cb bc 27 da 87 bf e9 97 9e 3e
       -0.6378062 -0.024833666 -1.061345 0.30975273
000280 bd ca 2c bf 9f 29 66 be ed c2 95 3e 0b 34 ee bd
       -0.67496854 -0.22476815 0.2925028 -0.1163102
000290 16 a7 a4 3e b6 b4 50 be d7 97 34 3d cc ae 8b bf
       0.32158726 -0.20381436 0.04409012 -1.0912719
0002a0 32 d3 4d bf 53 bd 75 3e 5b 9e d7 3e e1 f2 83 3d
       -0.80400383 0.23998003 0.42113003 0.0644281
0002b0 da 7a a8 bf dd 68 41 3f 19 db 98 bd 3e 89 91 3f
       -1.3162491 0.75550634 -0.074636646 1.1370008
0002c0 82 b5 e4 3e b7 ce 02 be 2d b0 7e be c9 19 32 3d
       0.4466973 -0.12774168 -0.24871893 0.043481622
0002d0 e4 66 62 be a7 aa 30 bf 63 88 3a be ce c9 fb be
       -0.22109562 -0.69010395 -0.1821609 -0.49177402
0002e0 21 c0 a3 3d a6 87 25 bf d4 f8 0c bf c2 24 03 3f
       0.0799563 -0.6466011 -0.5506718 0.5122796
0002f0 56 80 bf 3e cc ac 1a bf 57 cd 25 3d 37 08 f8 3e
       0.374026 -0.6041992 0.04047903 0.48443767
000300 31 27 59 3e bc 16 26 be cc c6 e9 3d 07 0c c2 3c
       0.21206357 -0.1621961 0.114148706 0.023687376
000310 2d cb f8 be 3e 00 9b bc 95 9b 93 bd 99 6c e5 3e
       -0.4859251 -0.018921014 -0.07207409 0.44809416
000320 5e ac 6d 3d dd 0e 5b 3f cb a2 ab be df 8e b2 bd
       0.05802571 0.85569555 -0.3352264 -0.08718657
000330 8c 19 e1 3d 22 5f c4 3e e6 19 88 3d df 6a b8 bd
       0.10991201 0.3835383 0.06645565 -0.09004759
000340 60 55 04 be aa b8 c8 be 9a 13 a2 be 95 5c 70 bc
       -0.12923193 -0.39203387 -0.3165558 -0.014670511
000350 3c 3c aa be 6d 04 3f 3e 49 f4 de 3d 32 07 9b bf
       -0.3324908 0.18654032 0.108864374 -1.2111571
000360 77 d2 ba bd 8e 33 a3 3e ec a0 68 bf cf 5f 19 3f
       -0.09122174 0.3187527 -0.9087055 0.5991182
000370 4a 29 ad 3e ef 18 72 3e 32 1a a0 3e c1 3a 61 3f
       0.33820564 0.23642324 0.31269985 0.87980276
000380 0b 8b 5b be f8 17 90 3f 0c 9e 71 be ea a8 99 bd
       -0.2143976 1.1257315 -0.23595446 -0.07502921
000390 ad 16 3d 3e 83 fa 82 3e a4 8f 0a 3f de 30 76 3f
       0.18465681 0.2558175 0.5412543 0.96168315
0003a0 4f 23 b6 bc db 79 76 be 74 e2 fe be a0 36 94 bf
       -0.022233633 -0.24069922 -0.49782145 -1.157917
0003b0 a8 a4 09 3d d0 00 b0 3e d8 be 2b bd 85 55 dd 3e
       0.033604294 0.3437562 -0.04193005 0.4322931
0003c0 5f 39 d4 be c5 2f 13 3f 79 a4 d5 3c 94 26 0b be
       -0.4145002 0.57494766 0.026079403 -0.13588935
0003d0 fe 2a 7f be f2 fd 95 be d3 d7 22 bf f5 a4 c7 3e
       -0.24918744 -0.29295307 -0.6361057 0.3899304
0003e0 d8 c9 03 3f f3 03 f0 be 0f f3 16 3d 9b 77 55 bd
       0.51479864 -0.46878013 0.036852892 -0.052116018
0003f0 27 01 19 3d e0 4d 32 3f 86 5e b6 3c d5 aa 22 be
       0.037354615 0.6965008 0.02226187 -0.1588548

classifier.0.weight f4 [1, 128]
000000 46 ac ce 3e 6b 54 15 3f e8 01 29 3f c4 8e 0c bf
       0.4036581 0.58331937 0.66018534 -0.54905343
000010 00 c7 2c bf ea c6 a0 3e cf 4e 0d bf 14 83 d7 be
       -0.6749115 0.3140176 -0.5519838 -0.42092192
000020 65 92 f6 3e 8e 69 e0 be 9f bb 42 3f 40 1e 2a 3f
       0.48158565 -0.43830532 0.7606754 0.6645241
000030 5a c2 10 bf f5 fb 45 3f e2 5c 10 bf ee c7 55 3f
       -0.56546557 0.7733758 -0.5639173 0.83508193
000040 bb 6f 08 bf fa cb 08 bf c1 50 49 3f 08 7c ff be
       -0.5329549 -0.53436244 0.78638846 -0.49899316
000050 ae 5b f4 be 83 e8 9d 3e f1 40 c8 3e ef 54 09 bf
       -0.47726196 0.30841455 0.39112046 -0.53645223
000060 9a 47 01 3f 9a 99 93 be 7f ee d2 3e 5e 4e 1c 3f
       0.5049988 -0.28828126 0.41197583 0.6105708
000070 b8 82 1b bf 34 8e 64 be ff 46 2b bf d9 36 99 be
       -0.60746336 -0.22319871 -0.66905206 -0.29924658
000080 0e 87 cb 3e cf c3 3f 3f 53 ea 14 3f 89 ea d7 be
       0.39751476 0.74908155 0.5817005 -0.42171124
000090 eb 6b d5 be 51 81 18 bf 3d f0 ef 3e a8 ae 30 3f
       -0.41683897 -0.5957232 0.46862975 0.69016504
0000a0 af d9 f8 3e 4b 9d 03 be f5 fd d2 3e ed 5d 4b 3e
       0.4860358 -0.12852971 0.4120938 0.19860049
0000b0 9b 3f 14 3f 90 65 13 bf 31 6b 2d 3f 4e 67 00 bf
       0.57909554 -0.5757685 0.67741686 -0.5015763
0000c0 13 17 55 bf ee b7 06 3f 8f d5 09 bf 06 2c 08 bf
       -0.83238333 0.52624404 -0.5384149 -0.53192174
0000d0 a8 ce d0 3e 81 02 0e bf 70 5f d3 be f4 ce 24 bf
       0.40782666 -0.5547257 -0.4128375 -0.64378285
0000e0 5f e1 47 bf d1 a6 fd be 01 17 08 bf 43 a8 40 3f
       -0.78078264 -0.49541333 -0.531601 0.75256747
0000f0 20 63 04 3f a6 f5 45 bf ba e6 1e 3f d5 be bf be
       0.5171375 -0.77327955 0.6207081 -0.3745028
000100 c8 96 a2 be f3 02 34 bf 15 5f af 3e 90 46 a2 3e
       -0.31755662 -0.70317 0.3425223 0.3169446
000110 47 44 33 bf ab 86 4e bf a0 77 17 3f a6 e8 d2 be
       -0.7002606 -0.80674237 0.5916691 -0.41193122
000120 c6 7a 9a be 79 60 26 3f 2c 30 b3 be 88 d0 d1 3e
       -0.30171794 0.64990956 -0.3499769 0.4097941
000130 39 a5 3f 3f 01 81 33 bf b4 e0 04 3f 95 5b 01 bf
       0.74861485 -0.7011872 0.5190537 -0.5053037
000140 1e 1e f2 be 0d bd 17 bf 0c d8 23 3f 51 fe e0 3e
       -0.47288603 -0.59272844 0.64001536 0.43944028
000150 dd de 39 3f 61 45 a3 3e cf 33 e5 3e 99 b2 23 3f
       0.7260569 0.3188887 0.4476609 0.63944393
000160 90 c4 c6 3e e4 f1 99 be 1d 3e 79 bf 49 31 e9 3e
       0.3882184 -0.3006736 -0.973604 0.45545414
000170 af ac c0 3e 82 9a 47 bf 56 37 94 3e 4f 62 11 3f
       0.37631747 -0.77970135 0.28948468 0.5679063
000180 c1 4e d2 3e 14 3d 23 3f 61 c6 d8 be 22 3b 57 be
       0.4107571 0.6376507 -0.4233885 -0.21018651
000190 b9 66 21 bf 26 ce 2e 3f 16 a5 01 3f ef 15 c5 3e
       -0.6304737 0.6828331 0.50642526 0.38493297
0001a0 1a dc e9 be 6f 83 cc 3e 74 e4 57 be 19 6b 43 3f
       -0.45675737 0.39944026 -0.21083242 0.76335293
0001b0 c8 8a 1f be 66 88 2b 3f 8e 01 f1 be da 77 cf be
       -0.15580285 0.67005 -0.470715 -0.40521127
0001c0 20 e1 09 bf 30 6e 4e 3f 6d b6 0c bf 30 b8 0f 3f
       -0.5385914 0.8063688 -0.5496586 0.5614042
0001d0 96 93 00 3f 5f ad 0d 3f f4 1f 39 3f eb 53 f9 3d
       0.502252 0.5534267 0.7231438 0.12174209
0001e0 c1 0f b9 3e cb b0 cc 3e 08 4d c5 3e d5 19 f1 3e
       0.36144832 0.39978632 0.38535333 0.4709002
0001f0 d5 a8 22 3f 1f 56 06 bf f9 c3 1e bf ff 0b eb be
       0.6353887 -0.5247516 -0.6201778 -0.4590759

text_proj.0.weight f4 [128, 1536]
000000 4b 0d 4f 3d 1f ae d2 3d 02 72 43 3d 62 36 40 3e
       0.050549787 0.10287117 0.04771615 0.18770745
000010 e1 aa ed bd 29 74 5c bd bd bf d9 bc 4a be ac 3d
       -0.11604858 -0.053821716 -0.026580686 0.08434732
000020 26 ba 02 bd 66 ab a7 3d 8a 1e b3 3c 8a d2 5a bd
       -0.031915806 0.081869885 0.021865148 -0.053423442
000030 ff 4b b8 3c 04 fe a0 bb c1 be 01 3e 91 69 91 bd
       0.022497175 -0.0049130935 0.12670423 -0.07100213
000040 cf 94 46 3d 33 07 21 3e 1f 46 7b 3d 78 2e d4 3d
       0.04848176 0.15725403 0.06134617 0.10360426
000050 b7 44 0a 3d 9d bc d4 3d b4 ec 76 bd 82 f9 b7 3d
       0.033756938 0.10387538 -0.06028433 0.08983137
000060 fe ff fc bc 31 2a 23 3c 9b 7d 51 bd c0 74 bd 3d
       -0.030883785 0.00995879 -0.051145177 0.09250784
000070 d9 1e 59 bb 4a 5c 90 3d 9c df ad 3d 47 66 4d be
       -0.003312996 0.07048853 0.08489916 -0.20058547
000080 ca 63 78 bd 0e d5 c9 bd 27 cd 70 bd 07 69 b7 bc
       -0.06064204 -0.0985509 -0.0587894 -0.022388948
000090 b9 ba 90 3d 01 28 2f 3d b6 75 9e 3d 8e c7 cd 3c
       0.070668645 0.04276276 0.07737295 0.02511957
0000a0 ad 41 ef 3d de 8e 4c bd 21 bf 2d 3e 19 64 18 3e
       0.116824485 -0.049940936 0.16967441 0.14881934
0000b0 86 94 d3 bd 3a 9a ac 3d e6 88 4c bc 60 de 19 be
       -0.10331063 0.08427854 -0.012483811 -0.15026236
0000c0 ac 31 6f bc 8c af 77 3c 4d 24 05 be ef c0 cf 3d
       -0.014599245 0.015117537 -0.13002129 0.10144221
0000d0 51 fd 1a 3d 69 16 85 bc e2 b8 1d bc d4 9e ac 3c
       0.037839238 -0.016246038 -0.009626599 0.021071829
0000e0 1c 46 e0 bd 48 7b 79 bd 89 ab ce bd 3f 98 3f 3d
       -0.10950872 -0.060908586 -0.100913115 0.046776053
0000f0 3c 43 1c 3c 5a b8 8f 3d d2 74 ed bd 27 43 cd 3d
       0.009537514 0.07017584 -0.11594547 0.10022574
000100 65 c4 83 bd 1e 31 6b 3d 1f ba f4 bc 8d fb c0 3d
       -0.06433944 0.05741989 -0.029873906 0.094229795
000110 1f 88 00 bd 27 8f 90 3d c4 0f af 3d c4 9e 11 be
       -0.031379815 0.07058554 0.08547929 -0.1422072
000120 2f 13 51 bc 85 b4 8f 3d b7 3e 84 3d cf de b0 ba
       -0.012760921 0.07016853 0.064572744 -0.0013494137
000130 99 14 28 3c c0 64 de 3d 2f a1 66 3c 2f 63 bc 3d
       0.010258817 0.1085906 0.014076515 0.09198605
000140 80 1a 12 bd 62 8f 0c 3d 5a fc 8a bd d7 8e b3 3d
       -0.035669804 0.034316428 -0.067864135 0.08767479
000150 54 f9 31 be 14 8a 2b 3d c8 c8 08 be e5 57 e4 3c
       -0.17380267 0.04187973 -0.13357842 0.027873943
000160 26 c5 fc bc 53 98 71 bd 08 90 98 3d 23 4a 09 3e
       -0.030855726 -0.05898316 0.07449347 0.13407187
000170 9e 7a 11 be 67 0e 26 bb dd 03 50 3d a4 24 11 3e
       -0.14206931 -0.0025338174 0.050784934 0.14174134
000180 d0 8f 00 3b 1c 7c 06 3e 34 3b c0 3d 46 fa 95 3d
       0.001961697 0.13133281 0.09386292 0.073231265
000190 42 9d 4b 3c 6c a1 25 bd 45 02 68 bd 19 24 40 bd
       0.01242763 -0.040437147 -0.05664279 -0.046909425
0001a0 f7 4e e5 3d e8 ba fa bc 78 16 41 3d 66 02 9e 3d
       0.11196702 -0.030606702 0.04714057 0.07715301
0001b0 13 e9 80 bd 30 e3 e9 bc 23 06 8e bd 5f 18 e7 3b
       -0.062944554 -0.028550714 -0.06934764 0.007052466
0001c0 a7 b7 35 3d e2 13 0b be 42 49 bd bd 35 d8 34 bd
       0.044364598 -0.13581803 -0.092424884 -0.044151504
0001d0 fe d9 77 3c bc 41 ee 3c e1 f7 bd 3c bf f4 1f bd
       0.015127657 0.029084079 0.023189487 -0.039051767
0001e0 6b b9 bb bd c7 25 99 bd 16 86 f5 3c ca eb ff 3c
       -0.09166225 -0.074779086 0.029971164 0.031240363
0001f0 76 59 17 bd ea cc 05 bd 75 da 02 3d be 53 2c 3d
       -0.03695055 -0.032666124 0.031946618 0.04207205
000200 b7 8e 44 3d a1 25 a4 bd 33 f8 d9 3d ba 3a bf bc
       0.047987666 -0.0801499 0.10643043 -0.023343433
000210 41 b4 f4 3c 9a b4 5a be 7b 18 10 be a6 68 0a 3e
       0.029871108 -0.21357957 -0.14071839 0.13516483
000220 a0 e7 5d 3c ee 78 7c bd f2 cc d0 bd 4d 85 1f 3e
       0.013543993 -0.061638765 -0.1019534 0.15578194
000230 89 4a 04 bc 17 d1 40 3d 35 36 ef bc fc 15 4e 3d
       -0.008074411 0.047074404 -0.029200653 0.050313935
000240 b9 27 a4 3c 32 38 56 bd 57 3d 6a 3d f2 38 40 3c
       0.020038472 -0.052299686 0.057187404 0.011732327
000250 30 82 04 be fe 38 86 3d 36 50 94 bd 5d 26 54 3d
       -0.12940288 0.06553839 -0.072418615 0.0517944
000260 da d3 0b bd e3 51 ef 3d 80 5a 14 bd c1 6e 26 be
       -0.034137584 0.116855405 -0.03621912 -0.16253187
000270 ac 49 4f 3d 92 03 9c 3d 45 fb c8 bc 6e 45 8a bc
       0.05060737 0.076178685 -0.024533877 -0.01687881
000280 25 f1 f0 bc fb f3 07 3e 8c b8 5c bc e7 be 90 bd
       -0.029411862 0.13276665 -0.013471734 -0.07067662
000290 71 7a 89 bd af 29 1f 3d 31 78 5f bd f8 1c 8d bd
       -0.06712807 0.038858112 -0.054557983 -0.06890291
0002a0 28 4a bd bc bb 41 fe 3b 86 6e 80 bd 50 67 ea 3d
       -0.02310665 0.0077593005 -0.06271081 0.114454865
0002b0 54 7f c5 3d b1 b6 a8 3d 78 20 3f 3d 51 47 ca 3c
       0.096434265 0.082379706 0.046661824 0.02469221
0002c0 ee 08 19 bc 1a 7b b8 bd e7 6a 03 3d aa ad b3 bd
       -0.009340508 -0.09007855 0.032084372 -0.08773358
0002d0 cb 9e 41 bd b2 4c c7 3d 37 ba 33 bd d1 a1 6b 3d
       -0.047270577 0.09731425 -0.04387876 0.057527367
0002e0 0d 02 c0 bd 48 64 d9 3d 94 36 c6 bb f0 e6 e5 3c
       -0.09375391 0.1061483 -0.0060489867 0.028064221
0002f0 d8 77 c3 bd 01 9f 95 3c 0b c7 76 bc bf 34 c9 3c
       -0.09544343 0.018264296 -0.015062104 0.024561284
000300 e7 f0 0c bc 5d e0 97 bd e8 55 8e 3d 5c 69 b7 bd
       -0.0086023575 -0.07415841 0.06949979 -0.089556426
000310 13 da 4b 3d a2 ec 05 3e 4b 79 88 3d 26 96 10 3d
       0.04976852 0.1307855 0.0666376 0.035299443
000320 a4 7e 9d 3c 7a 65 f3 3d d2 4a 9d bd 85 4a 9f bd
       0.019225426 0.118845895 -0.076802865 -0.07777885
000330 20 93 62 3d e5 ac 1e bd 76 41 97 bd 7b 84 99 3d
       0.05531609 -0.038739104 -0.073855326 0.07495972
000340 3a 3e 22 bd d1 07 2c bc 4a 2b 27 bd 73 9b 40 be
       -0.039610125 -0.01049991 -0.040812768 -0.18809299
000350 bc 9f 38 bd f4 29 62 3d de af 48 bd 89 40 40 bd
       -0.04507421 0.05521579 -0.048995845 -0.046936546
000360 c8 68 f6 bc 30 95 2b 3e 01 a1 06 3d e4 09 ac 3c
       -0.03007926 0.1675613 0.03286839 0.02100081
000370 0c 6f 83 3d bd 08 e5 3c fd ff 46 3d 92 f9 de 3d
       0.06417665 0.027958268 0.048583973 0.108874455
000380 86 6e 81 bd da b5 a7 3d c4 f7 08 3e ae 67 97 3d
       -0.06319909 0.08188982 0.13375765 0.07392822
000390 05 52 8d 39 13 dd 9f 3d d5 4b 87 bc 79 fa 15 bd
       0.00026954725 0.078058384 -0.016515652 -0.036615822
0003a0 28 3f 09 be 09 d2 c7 bc f8 0d e8 bc 6c b5 09 3d
       -0.13402998 -0.024392145 -0.028326973 0.033620283
0003b0 37 08 8e bd c6 97 8d 3d 04 30 0b 3e 72 63 49 bd
       -0.069351606 0.06913714 0.13592535 -0.049167104
0003c0 0f 98 04 bd 8f 4c 99 bd c5 ab 9d bd 54 30 6f 3d
       -0.032371577 -0.074853055 -0.07698778 0.0583957
0003d0 ac 15 4c be fd c1 5c 3d f9 39 c4 bd ab de be bd
       -0.19930142 0.05389594 -0.0958137 -0.09319814
0003e0 a4 39 d4 bd f4 32 f4 bc 18 02 fe 3c b2 2d b5 3a
       -0.103625566 -0.029809453 0.031006858 0.0013822822
0003f0 13 7a bc 3d 8f d2 71 3d 2b dc a0 bd 93 07 df bc
       0.09202971 0.059038695 -0.07854494 -0.027225291
